packages/opencv-python/test_data/mnist.onnx (onnx, 129015 bytes, 8 tensors)

layer3.0.weight f4 [32, 784]
00000000: 9242 9e3d d913 a43d 40d2 71bd 215f 36bc
00000010: ca9d 953c 6ced a23d 54fa 7e3d 494c 713d
00000020: d864 353d 1fa5 e23c 5774 283d 6130 4fbb
00000030: 7ac2 99bc 24d7 503d 75cc 323d 68fa 0cbd
00000040: c9a5 05be 91d2 823d 352b 953b a788 debd
00000050: e4c2 23bd 9c74 bf3b f7c2 3cbd f9c7 a53d
00000060: 92b3 513d bc53 11bd 4b20 ae3c 5608 0c3d
00000070: 7c1e 8b3d e1ee 87bd a886 693d 11fa 593d
00000080: bbec 783d 6789 093d d681 46bd 998c 243d
00000090: c0b6 00bd 6158 843d 0124 e33d 662f fa3d
000000a0: 7c80 6dbd 745d 693d 74ae fa3d a34c da3d
000000b0: 223c 2d3d eaa4 743d da50 933d 83f9 3b3d
000000c0: 49a6 bf3d 8a8b 80bd 59f1 03bd 7320 e0bd
000000d0: f210 95bd 3d0f 593b fc44 fdbc 3b5f 0bbd
000000e0: fdae abbd 4412 033d 581d 9d3d d8e7 af3c
000000f0: 477f 773d 761d a23d 280f 953c a1b3 af3d
00000100: da08 183e d175 7c3d 6b0e 68bc 935a 46bd
00000110: f33d 95bb e2d1 8fbc fe08 b13d 2305 203e
00000120: aafd ab3d cd82 e5bd e4cc 0bbe 186f 743c
00000130: b58a 28bd caeb c33d f106 063d 0d04 3a3d
00000140: d57d 96bd 4e90 26bb 8ac5 35bd efc4 48bd
00000150: 36a8 883d 8f8c 1e3e 3283 b5bc 17bd c1bd
00000160: b53c f83c 8969 d3bd a81e 533c f3a7 f13c
00000170: 528e 093d 3840 0b3e 6b72 993c be89 02bd
00000180: 32ab 40bc 88bc b1bb 4826 793d 5b00 d53c
00000190: 2e3c dcbd d991 22be 0723 e6bd 486c 023c
000001a0: 4364 913c d10e 023e e20b 823b 236b b23d
000001b0: e770 ea3d ee1d 9bbd 33ba c23c 6025 873b
000001c0: b5e5 503e 10af 013e 3f75 5a3d 4d06 9dbc
000001d0: e706 e73d 5d4b b13c c05e cd3c 0a8e a13d
000001e0: 1bc9 0cbc 3cc4 b9bd ea18 41be e32c 2ebd
000001f0: 5e9c 493d dc21 c8bb 6d15 fcbc 9735 74ba
00000200: f7c2 bc3a 097c 34bd 01ea d2bd e748 24bd
00000210: f80d debd 1e8c 9e3d 5019 813d df31 e03d
00000220: b0dd 973d 5610 30bc d1b2 e5bd 5674 723c
00000230: ef82 e43d 8770 2eba a79b 5dbd c287 de3d
00000240: bab0 d4bd e18f 4dbd 905c 4e3d d82d a63d
00000250: 9028 5e3c fc79 183d 285d c53d f10a 363e
00000260: c4ea a1bc d18b 103d 4919 77bc e065 83bc
00000270: 5c61 8cbb b7c2 123e 7673 003e 12b6 a33d
00000280: c1bb 163d 5793 563d 8853 2d3e d143 d93d
00000290: 8982 1c3e a9b5 c73d 178b 723d fdca 703c
000002a0: d111 4d3d cb3f ba3d 6ef2 09bd 9779 dbbd
000002b0: db1a 4c3d 170b c9bd ee58 8dbd 0a11 693d
000002c0: a63a cebc fb49 21be fe32 b1bd 5709 3c3d
000002d0: 0573 093d acf2 053c 1e61 af3d 8bb3 e83c
000002e0: f126 a9bd 7fac d3bc 491d 8ebd e9f4 933c
000002f0: a0d3 eabd 41fe 913d d3eb ef3d 482b 933c
00000300: 4447 99bb 63ef 6f3d 88e1 9abd 8403 65bc
00000310: e711 00be 4721 68bd 8553 acbc 571d 35bb
00000320: 6e70 163d fd6d 4c3d a4fd 02be 5e0f 7dbd
00000330: 37ec 07be 5c91 a0bd e2e6 21be 5d28 6b3d
00000340: 80c9 0e3d 4f6a 5cbd ad4d 96bd 5bbb 02be
00000350: 7db1 f9bd 07bf b53d e94f 823d 8d55 02bd
00000360: 7a11 4f3d d386 c9bb 8784 ae3b f1ac a93c
00000370: 2efa ff3d 3905 0ebc e90f 663d 2163 5e3d
00000380: 055e 3c3d 1a74 77bd f333 e0bd d265 5ebd
00000390: 3b34 cc3a 7d3e 833d 9af1 cf3d 34a5 703d
000003a0: 518f b53b 12ea f23c 27a1 243c 3a22 28bd
000003b0: 1e3e 853d 37e2 8abc f608 d53c 26ac 0e3e
000003c0: 9109 a83d dfb8 503d bb27 1e3d 5c28 1e3d
000003d0: 141b 9fbc 6e3c b93c bc15 adbb fe31 acbc
000003e0: d8ee 9c3d 5578 3b3b cdeb 7f3d e114 93bb
000003f0: a983 9f3d e41d c9bd 277e febd d1c1 57bd
0.07727541 0.08011598 -0.0590384 -0.011131079 0.018263716 0.07955441 0.06225045 0.05891064
0.044285625 0.027666626 0.041126575 -0.003161453 -0.018769491 0.050986424 0.043652017 -0.034418494
-0.13051523 0.063878186 0.00455227 -0.10865908 -0.039980784 0.0058427583 -0.04608437 0.080947824
0.051196642 -0.035480246 0.021255633 0.034187637 0.06792924 -0.066373594 0.057013184 0.053216998
0.06077264 0.033578303 -0.048463665 0.040173147 -0.031424284 0.064621694 0.110908516 0.12216072
-0.05798386 0.05697389 0.122403055 0.106591485 0.042293675 0.059727587 0.071931556 0.04589225
0.09357888 -0.06276615 -0.03221259 -0.10943689 -0.07278623 0.0033120655 -0.030916683 -0.034026366
-0.08382986 0.03199984 0.076716125 0.021472856 0.060424116 0.079157755 0.018195704 0.08579183
0.14847127 0.061635796 -0.014163594 -0.048426222 -0.004554504 -0.017556135 0.08644293 0.1562696
0.08397992 -0.11206589 -0.13652378 0.014919065 -0.041147906 0.095664576 0.032721464 0.04541402
-0.07348219 -0.0025415602 -0.04437784 -0.049015936 0.06672709 0.15483306 -0.022157285 -0.09459894
0.030302385 -0.103228636 0.012885727 0.02949903 0.033582993 0.13598716 0.018731317 -0.031869642
-0.011759566 -0.005424086 0.060827523 0.026001146 -0.10753666 -0.15875949 -0.1123715 0.007960387
0.017748004 0.12700965 0.0039687017 0.08711841 0.11447316 -0.07574068 0.023770427 0.0041243285
0.20400126 0.12664437 0.05333447 -0.019168044 0.112806134 0.021642381 0.025069594 0.0788842
-0.008592869 -0.09070632 -0.1885716 -0.042523276 0.04922139 -0.006107552 -0.030771935 -0.0009315847
0.0014401366 -0.0440636 -0.10298539 -0.040108588 -0.10842508 0.07741569 0.06303656 0.10947012
0.074153304 -0.010746082 -0.11215747 0.014798244 0.11157786 -0.0006654341 -0.05410352 0.108657375
-0.103852704 -0.05018604 0.050381243 0.08114213 0.013559476 0.03722571 0.09636909 0.17777611
-0.019765265 0.03528959 -0.015081712 -0.016039789 -0.004284067 0.1433209 0.12544045 0.079937115
0.03680015 0.052386608 0.16926396 0.10608638 0.1528417 0.09751446 0.059214678 0.014696834
0.05006582 0.09094199 -0.033678465 -0.10716551 0.0498303 -0.09816568 -0.069017276 0.056901015
-0.02517445 -0.15750878 -0.08652304 0.045907345 0.033556957 0.008175533 0.085634455 0.028405925
-0.082593806 -0.025839088 -0.069391795 0.018061118 -0.114661455 0.07128573 0.11714902 0.017964974
-0.004677685 0.058577906 -0.07562548 -0.013977889 -0.12506829 -0.05667236 -0.021035919 -0.0027635896
0.036728315 0.04990958 -0.12792069 -0.061782233 -0.13273703 -0.07840225 -0.15810731 0.05741154
0.034860134 -0.05381232 -0.07339034 -0.12766783 -0.12192056 0.08874326 0.06362898 -0.03181987
0.050553776 -0.0061501055 0.005325857 0.020712348 0.1249889 -0.008668237 0.056167517 0.054293755
0.0459881 -0.060413457 -0.109474085 -0.054296322 0.0015579531 0.06408403 0.10153504 0.0587513
0.0055407663 0.029652629 0.010048187 -0.041048266 0.065059885 -0.01695357 0.02600525 0.13932857
0.0820495 0.050957557 0.03861211 0.03861271 -0.019422092 0.022611823 -0.005282132 -0.021019932
0.07662743 0.002860566 0.062480737 -0.004488573 0.07788784 -0.09820154 -0.124264054 -0.052675072

layer3.0.bias f4 [32]
00000000: 033f ed3d 0e36 a5bd 729f 0c3c 0a9c 4d3a
00000010: ca31 b03b 5fd1 5b3d ee15 8e3d 7437 95bd
00000020: 0aab df3d ff45 debc fe5e 0ebb 5fd1 d2bb
00000030: a04c d13d 5350 043e 309e af3d 9171 4bba
00000040: 8199 ebbc 9288 36bd a024 edba 9d5a 8c3c
00000050: 4cff 0fbc 2480 d5bb 5d70 aebd fa0d c03d
00000060: b36f fdbb 822c 693d 2b63 19bd f4aa 26bd
00000070: 624b 963d adcf 3e3d 10f3 a8bc 92e7 a6bc
0.11584284 -0.08066951 0.008582937 0.0007843381 0.005377029 0.05366647 0.069377765 -0.072859675
0.10921295 -0.027132986 -0.00217241 -0.0064336504 0.10219693 0.12921266 0.08575094 -0.0007760758
-0.02875972 -0.044563837 -0.001809258 0.017133052 -0.008788895 -0.0065155197 -0.08517525 0.09377666
-0.007734263 0.05692721 -0.03744809 -0.040690377 0.07338597 0.046584774 -0.020623714 -0.020374093

layer3.2.weight f4 [10, 32]
00000000: d21d 073d 9d48 ddbb af9b 683e cd48 253d
00000010: 5f3b dcbd 76cd dabd 915a dcbd c0d3 3b3e
00000020: 4f15 12be d776 5abd 2ebb 05be 1b5f f63d
00000030: 2305 cfbe cd29 6a3e d866 183e d572 073b
00000040: 329b ad3d acc9 0f3e 30d6 9ebc f4c7 f0bd
00000050: 9439 63bd 32fb e83b abcf 7a3d 61d9 7abe
00000060: e26f 40be 4b94 753e 1096 153e 803e 1dbe
00000070: 2ac7 073e ff78 273e c377 fe3d 0c2f fc3a
00000080: ef77 823e ee2a 22be 4a4a bebd 170b 35bd
00000090: e835 a23d a12a 253e a035 853e ad37 bcbe
000000a0: 4af8 9b3e 1a7c 23be 5c26 ddbc dca4 e5bd
000000b0: a31e 583e 00d7 4f3e 361c 483e 7d96 58be
000000c0: da59 2dbe d10f 6fbe 7918 49ba 32ae 933b
000000d0: d185 7e3d c88d 4f3e 169b 113b 9ecb 213e
000000e0: 05e8 b8be 09ff 78be 30b0 46be b2c1 14be
000000f0: 1130 bd3c ee38 3fbe 75e8 de3d a5c2 4dbe
00000100: 67ad 11be 7c1b 343e 2beb 4a3e 566d 58be
00000110: 4ae6 4c3d 0eb5 273e 0ad7 09be 845c 5dbe
00000120: 5087 e5be 1c18 1a3e 050a 2dbe 8121 5cbd
00000130: 619d 92bd 688a 3c3e 0759 a0be 5dcf c63d
00000140: e87d abbc 3e0b 7cbc 8e7d 2c3e f000 183e
00000150: c3f2 9dbe ad9a 443e 18c5 c3be 42e3 213e
00000160: 11fb c6bd 0f60 82be 6e43 c1bc 04a8 263e
00000170: 7137 62bd 0937 843e 3e86 c2bd 677e e53d
00000180: 92a5 bd3d 4f3a 25be 9f94 23be 8fc1 753e
00000190: cd61 efbd da75 b33d 4b97 373e 4bde 02be
000001a0: 0f33 09be eebe 71be 1e38 5dbd 94dd 30bc
000001b0: f1e4 14bd 4870 ecbd 37fa 123e 45aa 413e
000001c0: fd93 12be ba82 ad3d adaa 1f3e c8b2 243e
000001d0: d48b b5be 1ac4 8dbe c306 a73d 72e2 8a3e
000001e0: 3cbe 4e3e 4bc8 a3be b5dd 273e a4c5 283e
000001f0: 94d4 3cbe 7b63 4ebe 4287 0dbd 3905 0bbe
00000200: c0c1 13be 4d76 3b3e 61a9 9bbe 83b0 25be
00000210: 2122 3bbc 8436 dabe 27a1 4a3e 4744 36bd
00000220: e6bb 07be bd44 eb3d cd09 2bbc fa19 ae3d
00000230: 5c4c 3f3e 59a8 fd3d 57ae b7be 924f 3f3e
00000240: 9b44 fabc b538 82be dcf0 883d 030a a53d
00000250: 47c4 8b3e 6862 92bd bd61 c73d 069b bebd
00000260: 804a 92be 0d6c 89be 9bb9 813e 64ac 8fbe
00000270: 435a 8dbe f015 ab3d c345 943d c984 2a3e
00000280: 995e 0e3e 3694 4fbe be86 ecbc e02f 0b3d
00000290: 80fe a7bd 25bc 3ebc 62d4 07bc 892e 98bd
000002a0: 104c d33e 746c bbbe 47a4 0e3e 82fb 833d
000002b0: e05a 9cbe 66a7 cf3d c39b 133d da55 f43d
000002c0: 82ea 9e3d d7a2 953d 30ae bc3d 3076 f9bd
000002d0: 131c 9b3e 9dd3 94be 9bd5 8bbd 8d68 b0be
000002e0: 70c6 9cbb 802e a0bc 8773 cc3d 63c5 313e
000002f0: 61f3 0c3e a353 2fbe d908 9ebd 1d6e 6b3e
00000300: a60a acbc f1be fcbd 71fd 7b3d 582b 0ebe
00000310: 0549 0cbe c6e2 bcbd 4bdf 46be 0b06 08be
00000320: 000d 6c3d 64fb d5bc 9853 bc3d 7dd9 37be
00000330: 366b 72bc c431 33be bb23 fe3c b491 d8bd
00000340: 70fb 03bd db5a 46bd c64d 1ebc 272f f93d
00000350: 0ee0 6f3d bf18 dbbd 67da 45be 0bea ce3c
00000360: f27d 0abe a4b1 063e 40bf 21be 03cb f63d
00000370: fbda 09bd 72c9 2bbe ee65 ccbd 365e c0bd
00000380: c0ae 563e 65eb cebe ce22 4d3d 03ee 5bbe
00000390: 2f2b 9d3c 9578 b0bd e7bb 59bd c35d 97be
000003a0: e6c5 1cbb 35b0 843e b3db 0cbe 1459 d1bd
000003b0: 503c 733e 4081 c4be cdde 8abd ad1b 3c3e
000003c0: 9650 f13d d4a3 16be acaa 70be 0d08 c33d
000003d0: 09d1 53be 6629 49bd bf33 f53c 20d4 b0bb
000003e0: b2ed 083e 421e 7d3e 6452 593e ba3f 88be
000003f0: 9c68 793e 184c 0b3e d2ff b23c 0b2a 1a3e
0.032987423 -0.006753041 0.22715639 0.04035263 -0.10753512 -0.1068372 -0.10759462 0.18342495
-0.14265941 -0.05333599 -0.13059685 0.12029859 -0.40433607 0.22867508 0.14882982 0.002066781
0.08476867 0.14041775 -0.019389242 -0.11756888 -0.055474833 0.007110023 0.061233204 -0.24496986
-0.1879268 0.2398235 0.14608026 -0.15355873 0.13259569 0.1635475 0.124251865 0.0019240095
0.25482127 -0.15836689 -0.09291513 -0.04420003 0.07920438 0.16129543 0.26017475 -0.36761227
0.30462867 -0.1596531 -0.02699583 -0.11213085 0.21105437 0.2029686 0.19542012 -0.21151157
-0.16928807 -0.23345877 -0.0007671188 0.0045068497 0.062139336 0.20268929 0.0022217683 0.1580033
-0.36114517 -0.24316038 -0.19403148 -0.14527014 0.023094209 -0.1867406 0.108841814 -0.20093782
-0.14226304 0.1758861 0.19816272 -0.21135458 0.05002431 0.1637766 -0.13460937 -0.21617323
-0.44829798 0.1504826 -0.16898353 -0.05374289 -0.07158924 0.18412173 -0.31317922 0.0970752
-0.02093406 -0.01538354 0.1684477 0.14844108 -0.30849275 0.19199629 -0.38236308 0.15809348
-0.09715856 -0.25463912 -0.023591723 0.1627503 -0.055228654 0.25823238 -0.09498261 0.1120575
0.09260096 -0.16135524 -0.15974663 0.23999618 -0.11688576 0.08762713 0.17928807 -0.1278011
-0.13398384 -0.2360799 -0.054008596 -0.010795016 -0.036351148 -0.115448534 0.14353262 0.18912609
-0.14314266 0.084722 0.15592451 0.16083825 -0.35458243 -0.27688676 0.081555866 0.2712589
0.20189756 -0.3198875 0.16393168 0.16481644 -0.18440467 -0.20155136 -0.03455282 -0.13576211
-0.14429379 0.18306847 -0.30402663 -0.16180615 -0.011421711 -0.42619717 0.19788037 -0.044498708
-0.13255271 0.1148772 -0.010439348 0.085010484 0.18681473 0.123856254 -0.35875198 0.18682697
-0.030550292 -0.2543389 0.06686565 0.0805855 0.27298185 -0.07147676 0.09735439 -0.09306912
-0.28572464 -0.2684025 0.25336918 -0.2806121 -0.27607927 0.083537936 0.072398685 0.16652216
0.13903274 -0.20271382 -0.028872844 0.033981204 -0.08202839 -0.011641537 -0.008290382 -0.07430751
0.4126897 -0.3660618 0.13929854 0.06444456 -0.30538082 0.101393506 0.036037218 0.119304374
0.077595726 0.0730645 0.09212911 -0.121807456 0.30294856 -0.29067698 -0.068278514 -0.34454766
-0.004784398 -0.019553423 0.099829726 0.17360453 0.13764717 -0.17121749 -0.07716531 0.22991224
-0.021001171 -0.12341107 0.061520997 -0.13883722 -0.1369973 -0.09222941 -0.19421117 -0.13283555
0.057629585 -0.026120849 0.09195632 -0.17954059 -0.014796069 -0.17499453 0.031022897 -0.10574666
-0.03222221 -0.04842649 -0.009662097 0.12167197 0.058563285 -0.10698079 -0.19321595 0.025258085
-0.13524607 0.13153702 -0.15795612 0.1205044 -0.0336561 -0.16776064 -0.09980379 -0.09392969
0.209651 -0.40413967 0.05008202 -0.21477513 0.01918563 -0.08616749 -0.053157713 -0.29563722
-0.0023921668 0.25915685 -0.13755684 -0.102220684 0.23753476 -0.3837986 -0.06780777 0.18369932
0.11782949 -0.14710933 -0.23502606 0.0952302 -0.2068521 -0.049111746 0.029931901 -0.005396381
0.13371924 0.24718574 0.21222836 -0.2661112 0.24356312 0.13603246 0.0218505 0.150551

layer3.2.bias f4 [10]
00000000: 3563 22be 4eb7 853d acec 0dbe 6a56 f93d
00000010: 2796 d83d 1656 fabd 5f5e 213d 7644 fc3c
00000020: f7df e1bd 18e0 91bd
-0.15858157 0.06529103 -0.13859814 0.12174685 0.10575514 -0.12223451 0.03939664 0.030794363
-0.11029046 -0.071228206

onnx::Conv_33 f4 [8, 1, 3, 3]
00000000: 49ee 91bf 8f44 583e 3fc3 033f aacb 80bf
00000010: 4c73 643e 2d42 a63f 9f9b a73f f636 8d3e
00000020: 4f07 733f 949f e5bf 46a1 d5bf ac9d aebf
00000030: f127 b73e 1c8a 223f 6d22 babf 2321 1e3f
00000040: 1a3b b83f 3ee7 33be a52a 283f 77f5 88bf
00000050: 6e3b 5fbf 9419 a53f 6f2a d5bf 9cf8 89bf
00000060: 2162 e23f d0fe 9d3f e9d4 e6bf f59f 38bf
00000070: 0eaf 2ec0 9c47 c1bd 0b27 07c0 f03a 0f40
00000080: 09b6 953e b18e a8be 7afd dd3f ca68 8cbf
00000090: 3ee6 683f b8be e33d 305f 3fc0 49a5 e93e
000000a0: 2b94 0040 edd5 f83f e3d6 a7bd 2734 86bf
000000b0: 1e2c 653f 53f2 0140 90e0 d4bf d8f6 ccbf
000000c0: d1da 36bf f798 0cbf 78f2 0abf 351d c0bf
000000d0: 5c3b 9cbf 92a1 0940 b479 02be 243c 513f
000000e0: d7cf e73f fc79 bcbe 50ef e73e e5eb 48bf
000000f0: d5ca f0bf 62e4 c3bf e06e 72bf 76cb 4d3f
00000100: 9649 823f f832 c93e 686f 92bf 5c69 1dbf
00000110: 4000 4c3f ae30 b53c 2662 433f cb5d e33e
-1.1400844 0.21119903 0.51469797 -1.0062153 0.22309607 1.2988945 1.3094367 0.27580994
0.9493303 -1.7939324 -1.6689842 -1.3641868 0.3577266 0.6349199 -1.4541756 0.6176931
1.4393036 -0.1756868 0.6569007 -1.069991 -0.8720006 1.2898431 -1.6653575 -1.0778995
1.7686197 1.2343388 -1.8033725 -0.72119075 -2.7294345 -0.094374865 -2.111758 2.2379723
0.29240444 -0.32921365 1.734298 -1.0969479 0.9097632 0.11120361 -2.9901848 0.45633915
2.0090435 1.9440285 -0.08195283 -1.0484666 0.8952044 2.0304153 -1.6631031 -1.6012831
-0.7142764 -0.54920906 -0.5427623 -1.5008913 -1.2205615 2.1504865 -0.12741739 0.8173239
1.8110303 -0.36811817 0.45299768 -0.78484946 -1.88119 -1.5304072 -0.9470043 0.8038858
1.0178707 0.392967 -1.1440248 -0.6148889 0.7968788 0.022117939 0.7632164 0.44407496

onnx::Conv_34 f4 [8]
00000000: a91b d6be 08c9 3b3e 8b34 9a3e 68b4 ef3d
00000010: c40e 32bf bfcb 833e 0566 0f3e c21e 08bf
-0.41817978 0.18338406 0.30118212 0.11704332 -0.6955378 0.25741383 0.14003761 -0.5317193

onnx::Conv_36 f4 [16, 8, 3, 3]
00000000: 0d64 9bbd de50 933e e716 893e 093a 97be
00000010: 8367 f63d df8f 973d 08f7 23be cfcf 763b
00000020: 1f23 0b3e 6d6b 49bc cc9a 153e 4541 bdbe
00000030: 0532 303f a5e3 0bbe a579 4ebe e17f 023e
00000040: ac9e 013e 609d 92be 4acf 95bd 1788 9fbd
00000050: 9a65 adbe 45cc d33d b75e 743e 4a61 e13d
00000060: aa06 113e 9f89 2e3e 3422 373e 8f03 c6be
00000070: 30bf 96be c88e 1c3e 0747 29be dfb1 81bd
00000080: 9303 1b3d f6c9 4cbe 0744 adbe 6c6c 99be
00000090: 0f26 ea3d 50c4 733d 08f9 84bd 9068 8ebe
000000a0: f5bc dbbd 53a1 ee3c ec30 ddbd 9801 3abe
000000b0: dd59 ac3e 2b0e 8d3e b1df df3d 7113 f43c
000000c0: 3d82 8fbe f896 dd3d 497c 84bc a6e2 2d3e
000000d0: 6e89 35be 646c a6be e02d 8e3e 8e65 3cbe
000000e0: cd66 9abe 4b1d 8a3e f93a f6be 4c64 92be
000000f0: a520 60be f53a 00bf 8254 8abd de33 60be
00000100: f56c c3bd aeb4 cf3e 0ee4 c03d 1ae4 0cbe
00000110: 1c03 ba3e 62a7 11bd f044 60bd 92bd c83e
00000120: 3e88 fb3d c4bf debe 068e 1cbe 8f24 e9bc
00000130: ef3b 8d3e 546f 253e ee9e 093d 6605 3e3e
00000140: 2999 243d afe5 d0be 04c1 023f e4df 0d3f
00000150: 9b6c 923d 76bd 0d3f 0998 863e f4bb 303e
00000160: 2870 27bd a233 c5bd 6ae0 91be 0f5d 9fbe
00000170: 3cd5 853e 7e79 7e3e 2c53 4bbb 6b69 8dbd
00000180: 3204 a7bd 4d62 68be 8915 7cbe 1943 bf3e
00000190: 5924 d53e 35bc b23d ff4e 453d 76ce 4c3f
000001a0: 0f3e c53e 4124 78bd 74fa bdbe 7583 e4bd
000001b0: 1303 513e 57c6 dbbc 94b1 ecbd 42dc f43c
000001c0: 0539 cdbd 292c d73c a264 5b3e 1118 b43d
000001d0: aeff babe 9a0a 6f3e 8756 5a3e 1abe afbd
000001e0: aa65 dabd 9dba 4a3e 8004 9cbc 7486 26be
000001f0: 4abc f23d e481 b63d cbf3 5abd 1755 ad3e
00000200: f275 3bbd 586f babe a2df 29be 36f3 a7bd
00000210: a066 3cbc 5b4d e63e 48e8 8d3e 9d5b e2bd
00000220: f11f 8bbe e8c9 45be 211e 06bc 5732 ff3d
00000230: f640 b53d b652 263e 4edc 64bd 0fce 4fbe
00000240: 56b1 31be 6094 b6bb 2bd6 053e f19d dabe
00000250: 1ecf bdbe 0a3e 873d b1b6 63be fec5 543e
00000260: 8740 90bc 7e80 6b3e eb71 3b3f e5b1 7f3e
00000270: a0af e63e d7f7 913e 7e27 9c3d 3220 343d
00000280: ee81 39be 52d5 fabd a581 ecbd b55e cb3e
00000290: 14e1 263e 068a c53d 6025 833e 0711 a8bc
000002a0: f805 d8be 0d2b 51be 96c9 f73d a501 2cbe
000002b0: b825 4f3d 4922 08bd 2430 febd 7798 a4be
000002c0: 1609 b9be 9546 793d 8471 4dbe bffb 0cbd
000002d0: 741b dbbd 3b96 953d 36bb 813d 5faa e73e
000002e0: 71a6 c53e c8df 233e 772a 9cbe 4db8 16bd
000002f0: 2247 83bd 7222 7abe 29c6 dcbe e02e 99be
00000300: e44d 96be ccdb b8be 410a 5ebe 050d 9a3e
00000310: 82cd 09be a9b6 c43c a375 313e d91a 003e
00000320: 8ec1 91bd a8f5 ec3e cabb 1abe 6b18 3ebc
00000330: 99ea 9e3e 1a95 23be 175a 5abe 8b7d e2be
00000340: a2d1 41bd 1b72 c23c 9f0d 153e f13a e4bc
00000350: ae02 743e c935 fa3d c517 da3e 6ef8 653d
00000360: 9bfd 2b3e 2489 a8bd a4b7 593e b2dc 54bd
00000370: bdc0 a73d fba3 823d 70a8 a5be 7343 8a3c
00000380: 2d46 6cbe 5d8b 943d 2b92 74be 314c 44be
00000390: 6882 283e 5e88 cbbd 60bf e3bc b84d 353e
000003a0: 8c3d 3ebe e8ea 4f3d f464 113e 92a5 09bb
000003b0: 3bef abbe a606 35be 6cb5 a9bd 1178 7dbe
000003c0: 31b5 1dbd dc07 b8bd 0c9f 64be e878 b33e
000003d0: 65b9 0e3e a001 473e 464e dfbe 3ebf adbd
000003e0: fdc0 483e 290d aebe a89f 84bd c406 933e
000003f0: a864 093e cc55 7c3e bef4 92bd 19aa 393e
-0.075874425 0.28772634 0.26775286 -0.29536465 0.12031462 0.07400488 -0.16012204 0.0037660485
0.13587616 -0.012293679 0.14609832 -0.3696386 0.68826324 -0.13661058 -0.20163591 0.12744094
0.12658185 -0.28635693 -0.07314928 -0.07789629 -0.33866578 0.10341696 0.23864256 0.110048845
0.14162698 0.17044686 0.17884141 -0.3867459 -0.2944274 0.15288842 -0.16531001 -0.06332754
0.037845206 -0.19998917 -0.33840963 -0.29965532 0.1143304 0.05951339 -0.064928114 -0.2781415
-0.107294 0.02912966 -0.10800347 -0.1816467 0.3366231 0.27549872 0.109313376 0.029794427
-0.2802905 0.10819811 -0.016172545 0.16980991 -0.17728207 -0.3250457 0.27769375 -0.18398115
-0.30156556 0.26975474 -0.48091868 -0.28592145 -0.21887453 -0.5008996 -0.067544 -0.21894786
-0.09542266 0.40567535 0.09418498 -0.13758889 0.36330497 -0.03556002 -0.054753244 0.3920713
0.122818455 -0.4350568 -0.15288553 -0.028459815 0.27584788 0.1615575 0.033598833 0.18556747
0.040185127 -0.40800235 0.5107577 0.55419755 0.07149621 0.5536722 0.2628787 0.17259198
-0.040878445 -0.09628989 -0.28491527 -0.31125686 0.26139247 0.24851033 -0.0031024916 -0.069048725
-0.08155097 -0.22693749 -0.2461759 0.3735588 0.41629294 0.08727304 0.04817104 0.80002534
0.3852391 -0.06058145 -0.37105143 -0.11157886 0.20411329 -0.026827974 -0.11557308 0.029890183
-0.10020641 0.026266174 0.21425107 0.08793653 -0.36523193 0.23343888 0.2132207 -0.08581181
-0.10663922 0.1979775 -0.019045115 -0.16262227 0.118523195 0.089114934 -0.053455155 0.3385398
-0.04576678 -0.36413074 -0.16589215 -0.08200686 -0.011499077 0.44980893 0.2771628 -0.1105263
-0.27172807 -0.19315302 -0.008185894 0.124607734 0.08850281 0.16242489 -0.05587416 -0.20293449
-0.17352805 -0.005571887 0.1306998 -0.42698625 -0.3707208 0.0660363 -0.2223766 0.20778653
-0.017608894 0.22998235 0.732207 0.24970205 0.45055866 0.285094 0.0762472 0.043976016
-0.1811597 -0.12247719 -0.11548165 0.39720693 0.16296798 0.096454665 0.25614452 -0.020515932
-0.42192054 -0.20426579 0.12098996 -0.16797502 0.05057308 -0.033235822 -0.12411526 -0.3214757
-0.36139745 0.060858328 -0.20062834 -0.03441977 -0.10698596 0.07304045 0.06334536 0.4524717
0.38603547 0.16003335 -0.30501148 -0.036796857 -0.06410052 -0.24427202 -0.43119934 -0.29918575
-0.293563 -0.36105192 -0.21683599 0.30088058 -0.13457301 0.02401288 0.17330031 0.12510242
-0.07116996 0.4628117 -0.15110698 -0.011602501 0.3103836 -0.15974846 -0.21323429 -0.44236407
-0.047319062 0.02373605 0.14555977 -0.027860137 0.23829147 0.1221729 0.4259626 0.056145124
0.16795962 -0.082292825 0.2126146 -0.051968284 0.08191059 0.06378933 -0.3235507 0.016877865
-0.23073645 0.07253144 -0.23883884 -0.1916969 0.16455996 -0.09938119 -0.027801216 0.17705429
-0.18578166 0.050761133 0.14198667 -0.0021003229 -0.33580956 -0.17678317 -0.082865566 -0.24752833
-0.038502876 -0.08985874 -0.22326297 0.35053182 0.1393791 0.19434214 -0.43614405 -0.08483742
0.19604869 -0.33994415 -0.064757645 0.287161 0.13417304 0.24642104 -0.07175587 0.18131293

onnx::Conv_37 f4 [16]
00000000: 7016 0b3c 887b 24bf b47c 6ebd 71b5 6b3e
00000010: 2a53 ccbe 4435 cd3d 6598 48be c553 943e
00000020: 1df1 e93e f429 8ebe ca97 033e 88a8 f6bd
00000030: 5c1e 273e 2610 1cbf 83e6 be3e 7601 1c3d
0.008489236 -0.64250994 -0.058224395 0.23018433 -0.399072 0.10019925 -0.19589384 0.2897016
0.45691767 -0.27766383 0.12850872 -0.120438635 0.16320175 -0.6096214 0.3728524 0.03808733
